…
32, 32),            nn.ReLU(),            nn.Dropout(p=0.3),            nn.Linear(32, num_label)        )    def forward(self, x):        out = self.conv1(x)        out = self.conv2(out)        out = self.classifier(out)        return out위에서 봤던 Conv2d + ReLU + MaxPool2d, Flatten + Linear + Dropout을 모두 적용한 모습이다. 완성된 모델의 구조는 아래와 같다. 학습이 잘 되는지 확인하기 위해 channel과 같은 값들은 임의로 설정하였다. ----------------------------------------------------------------        Layer (type)               Output Shape         Param #================================================================            Conv2d-1           [-1, 16, 26, 26]             160              ReLU-2           [-1, 16, 26, 26]               0         MaxPool2d-3           [-1, 16, 14, 14]               0            Conv2d-4           [-1, 32, 12, 12]           4,640              ReLU-5           [-1, 32, 12, 12]               0         MaxPool2d-6             [-1, 32, 7, 7]               0            Linear-7                   [-1, 32]          50,208              ReLU-8                   [-1, 32]               0           Dropout-9                   [-1, 32]               0           Linear-10                   [-1, 10]             330================================================================Total params: 55,338Trainable params: 55,338Non-trainable params: 0----------------------------------------------------------------Input size (MB): 0.00Forward/backward pass size (MB): 0.27Params size (MB): 0.21Estimated Total Size (MB): 0.49----------------------------------------------------------------  위 결과는 torchsummary를 통해 출력한 결
…
